best_model.pth (torch, 780514 bytes, 26 tensors)

conv_layers.0.bias f4 [128]
00000000: 83aa a3bc 0b50 c9bb 813e 5bbc d542 403d
00000010: d634 3f3b d653 16bd 606c 68bd 3feb 843c
00000020: af4b 93bc c608 c9bb ce6f 99bc bf37 08bd
00000030: 3f40 21bd aa7e bfbc a75f 14bd 9f49 a4bb
00000040: 7847 76bd c895 34bc 30e2 35bc 02cd 9cbc
00000050: 02d1 04bc 5e4a 7bbc 859f 163d dbc1 58bd
00000060: b934 08bd 8c1d d5bc 9f7b 963b 89a1 bb3a
00000070: b87f 6ebb 42de 26bc 5aa5 683d 7019 d9bc
00000080: 08c2 88bd bd5a 9fbc 0b52 efbc 999b f5bc
00000090: 5f5e f0bc 81f6 3cbb 5970 113c d1b0 003c
000000a0: 1602 0cbd 0329 8d3c a26d 76bc 5266 29bd
000000b0: 576a 41bc 7e90 24bd 7cae ccbb e15b 95bd
000000c0: 2b69 aebc bf03 ddbc 3a4a d7bc e0df 67bd
000000d0: 9f2d 83bc 9f3a 2bbc 57a4 0fbd 4d1c 04bd
000000e0: 556a 27bd 4b8d dabc bf5d 81bd 28bb 72bd
000000f0: 5a07 58bd 3940 21bd 5e5d 28bd 0978 00bd
00000100: 6690 72bd 33d3 6b3b 57b9 44bc d61f fcbc
00000110: 4066 c3bc 60c6 88bd aa04 b5bd 236c 84bc
00000120: aa8c bcbc 8ead 49bd 987e 81bc f2bb 1abd
00000130: b97f 35bd 9c97 28bd f869 30bd 7976 99b9
00000140: f605 11bd aa62 ef3b a526 28bd f12c 25bd
00000150: 9b55 9bbd 1027 cebc 8891 8dbc 8e4a bc3b
00000160: 1378 17bd f9e6 54bd 2fdb 7bbd 981a 02bd
00000170: 6a9c 06bd e150 11bd 0e5a 563c e38b f0bc
00000180: 987f d3bb 6731 a2bc 9258 e5ba bc39 83bd
00000190: ca48 d6bc fd7f 50bd 3769 41bd e1cd 55bc
000001a0: 4875 f6ba 072e 48bd 142b 03bd 7ab3 83bb
000001b0: 93d5 cdbc a2fc 63bd 7496 50bd 122c b1bc
000001c0: 799b dbbc ee2e 81bc 0137 d93c 32d0 7abc
000001d0: 56e5 1abd a617 5bbd b356 62bd fd40 babc
000001e0: 83d2 2e3a f11d 03bd ab4f ee3b 480a a43a
000001f0: 0c41 97bc 5a1f d13c b255 05bd db31 14bc
-0.019978767 -0.006143575 -0.013381601 0.046938736 0.002917578 -0.036701046 -0.05674398 0.016225455
-0.017980425 -0.006135079 -0.01873007 -0.03325629 -0.03936791 -0.023375828 -0.036224034 -0.005013659
-0.06012675 -0.011022039 -0.011101291 -0.019140724 -0.008106472 -0.015337555 0.036773223 -0.05291925
-0.033253405 -0.026015066 0.0045923735 0.0014315109 -0.0036392044 -0.010184826 0.056798317 -0.026501387
-0.066776335 -0.019452447 -0.029213926 -0.029981421 -0.029341875 -0.0028833451 0.008876883 0.007854656
-0.034181677 0.01723147 -0.015040787 -0.041357346 -0.011805139 -0.04017686 -0.006246386 -0.07292915
-0.021290382 -0.026979325 -0.026280511 -0.05660999 -0.016012965 -0.010450988 -0.035068836 -0.032253552
-0.04087289 -0.026678702 -0.06316709 -0.059260517 -0.052741386 -0.039367888 -0.041104667 -0.031364474
-0.05921974 0.003598404 -0.012007079 -0.0307769 -0.023852468 -0.06678462 -0.0883878 -0.016164845
-0.023016293 -0.04923778 -0.015807435 -0.037776895 -0.04431126 -0.04116021 -0.04306981 -0.00029270703
-0.035406075 0.007305463 -0.04105248 -0.040326063 -0.07584687 -0.02516511 -0.017281309 0.0057461923
-0.036979746 -0.051978085 -0.061488327 -0.031763643 -0.03286401 -0.035477523 0.013082994 -0.029363578
-0.0064544193 -0.019798947 -0.001749771 -0.06407496 -0.026157755 -0.05090331 -0.04721948 -0.013049574
-0.0018803263 -0.04887202 -0.032023504 -0.004019198 -0.025126254 -0.05566085 -0.050924733 -0.02162746
-0.026807534 -0.015769448 0.026515486 -0.015308427 -0.037816368 -0.05348935 -0.055258464 -0.022736067
0.0006668942 -0.032010976 0.0072726808 0.0012515271 -0.018463634 0.025527645 -0.03255243 -0.00904509

conv_layers.0.lin.weight f4 [128, 18]
00000000: 124b 62bd ed88 f13d 9a97 f2bd 2fe1 0b3e
00000010: 2762 323e 3c1a 4a3e 785d 26be 2514 45be
00000020: 23ee d03c 4d1a e73d a71b 843e 0a90 a33b
00000030: fbea ca3c e31d 1fbe 361f 23be 8453 08bd
00000040: c281 843d e57d 983c f760 083e 660f 61bb
00000050: 4e77 e63d fe4f 753d fc42 3abe 776e 763e
00000060: 444f b63d 93fc e23d a32e d8bd ece3 bdbd
00000070: 94c7 993d 0352 a1bc f23e 4bbe 526e 4d3e
00000080: 7212 a43d dab3 2c3b 7f6d bdbd 6874 b73c
00000090: 8dbe 52be f642 353e fd65 d1bd cacb f3bc
000000a0: 1f5b ad3d 6a0c 863e 7bfe 9dbb b937 79bd
000000b0: c931 70bd 95a4 24be 4aaf 093e 05d7 8d3d
000000c0: 054b e7bd 9190 b5bd dc06 8a3d c088 24be
000000d0: 0173 453d bc74 4bbe 28c3 7bbe 3fa2 ce3d
000000e0: e84e b7bd 6f1e f13d 7287 c7bd 0765 2c3e
000000f0: 37f7 fcbd 4362 563e 45b6 433d d559 643d
00000100: b99b 6f3d 9c8a c7bc 835f 973d bc70 afbd
00000110: 0662 2abe ce8b b73d 5446 7bbc 7823 86be
00000120: c3f7 89bd 0410 5e3d 9f75 323e 24cd 9b3d
00000130: 718e 0bbe d604 853a 32b7 23be dd03 eb3b
00000140: 3b82 44be 1224 0bbd 6379 763d fc73 eeba
00000150: 3f2b 0cbe 1a70 513d 96d2 c73d a693 fb3d
00000160: 6ef9 5fbd ba90 5bbe 9857 c9bd 0edd 71be
00000170: 4982 173e 87e5 973c c12a b5bd 0c46 923d
00000180: c4b1 f8bd 7f78 f23c a3ee 8d3d 2492 61be
00000190: 4259 f1bc ac1b 4f3c 6b0c 273e c0c5 7c3b
000001a0: 4ad8 703d 3d4e 27be be57 063e 37a7 0f3e
000001b0: c6b2 393e 3f37 033e 112b d53c 00d3 153e
000001c0: 1eb7 d8bd a92d 9abc d9f1 213e 7675 06be
000001d0: ee38 3b3e c885 13bc 4057 a7bd d1b5 1cbe
000001e0: 7762 3d3e 8836 4d3e 96e0 f63d a228 dfbc
000001f0: dc72 473e 1d0e 4d3e 6847 f93d 74f7 4e3e
00000200: fb7d 05be 6f90 f9bc 4c85 fe3d 080c 9a3b
00000210: e5f5 823d 6298 46bd f4ac 033e f780 a93c
00000220: 3b40 ea3d 8322 273e e8a5 a13d 055f aabd
00000230: 91c9 d73d c44e 52be 512d c13d fd6b abbd
00000240: 3f4d a0bd b165 e93d 8245 38be e622 e53d
00000250: 78ea fc3d d974 dc3d 2719 2cbd 1dc4 cfbc
00000260: acc5 f53d f719 e53c e823 74bc efb1 523e
00000270: be9a bb3d bf3d 85bd 3178 a8bd 8a12 9a3c
00000280: 6645 3b3e 3587 cabd 2af9 2f3d ac76 0b3b
00000290: 2442 bebd 6689 efbc 67d2 493d 801a 573e
000002a0: e760 bb3c f501 1e3e f1ce 1c3e 3f46 4f3e
000002b0: 76d7 b83d 9d76 03be ee15 2c3e 6e99 e8bd
000002c0: 2669 91bd 88ca 3ebe 34a3 fbbc f87f d4bd
000002d0: 5736 a9bd 8586 2a3c 0826 17be 51c8 4c3b
000002e0: 8c74 3bbe 6d70 503e ef23 283e 344e 763d
000002f0: adcf a3bc eb72 aebd 0cde 68be 7fc2 933d
00000300: 13ef 053e a992 b6bd 937e 8bbc 34e1 0ebe
00000310: 8fe0 75bd 8b98 b63d 997e 42bd d6de f6bd
00000320: 8675 273e bca2 ed3d e638 35be d762 5f3e
00000330: f8e2 6d3e e65b 1a3e 9efb f2bd e634 3cbe
00000340: e9f5 1abe 82aa dfbc 9370 11be f395 08bd
00000350: f238 fd3c 207f ccbd 3a19 be3d 8364 8a3d
00000360: 2cb4 24be 362e 08be ca16 09be 8e68 3bbd
00000370: 50ea 8cbd d7e7 053e dbfc a03d b757 c63c
00000380: 28af d43d 7040 eb3b ce91 a6bd 0871 01be
00000390: af2b c8bc 7b82 b8bd f4d4 3f3d 5135 e8bd
000003a0: 24bf 1c3e da8f d4bd acec 053e 61c2 32bc
000003b0: b2e3 3bbd d095 e9bd 1d5c 2f3e 19fd 443e
000003c0: dcae 113e ad59 c0bd f561 80bd 4259 823c
000003d0: 2cde 483b 4def 87be ac0d 45be 186f 763d
000003e0: cad3 2e3c a93c 66bd 5da6 edbd 9062 253e
000003f0: 885b bbbd 20e8 f43d d3dc 2ebe c81d df3d
-0.055247374 0.11793695 -0.11845322 0.1366012 0.17420255 0.1973657 -0.16246593 -0.19245966
0.025504177 0.11284313 0.25802347 0.004991536 0.02477025 -0.15538745 -0.15929875 -0.03328277
0.06470062 0.018614719 0.13318239 -0.0034341454 0.11253224 0.05989074 -0.18189615 0.24065576
0.089018375 0.11083331 -0.1055577 -0.09271988 0.0750877 -0.019692427 -0.1984823 0.20061615
0.08011331 0.0026352317 -0.092494 0.022394374 -0.20580502 0.17701325 -0.10224531 -0.02976026
0.084646456 0.26181346 -0.004821596 -0.060844157 -0.05864123 -0.16078408 0.13445774 0.06925777
-0.11293606 -0.088654645 0.067395896 -0.16067791 0.04820538 -0.1986875 -0.24586165 0.1008954
-0.08950597 0.11773383 -0.09742631 0.16835414 -0.1235184 0.20935921 0.047781248 0.055749733
0.058498118 -0.024358086 0.07391264 -0.08566424 -0.16638955 0.089622125 -0.015336592 -0.26198936
-0.0673671 0.054214492 0.17427681 0.07607487 -0.13628556 0.0010148536 -0.15987852 0.0071720914
-0.19190304 -0.033969946 0.060174357 -0.0018192525 -0.13688372 0.0511323 0.09756963 0.12284021
-0.054681234 -0.21441928 -0.0983116 -0.23619482 0.14795794 0.018542064 -0.08846045 0.07142267
-0.12143281 0.029598473 0.06930282 -0.22028404 -0.029461507 0.012640875 0.16313331 0.0038570017
0.05880002 -0.1633844 0.13119408 0.14028631 0.18134603 0.12814043 0.026021512 0.14631271
-0.10581802 -0.0188206 0.15814914 -0.13130745 0.18283436 -0.009004064 -0.081709385 -0.15303732
0.18494593 0.20040333 0.12054555 -0.027241055 0.19477409 0.20024915 0.12171823 0.20211583
-0.13036339 -0.03046438 0.12427768 0.0047011413 0.06394557 -0.048485167 0.12858945 0.020691378
0.11438032 0.16321759 0.07892972 -0.08318905 0.105364926 -0.20537859 0.094324715 -0.083702065
-0.078272335 0.11396349 -0.17995265 0.11188297 0.12349409 0.107644744 -0.042016175 -0.025362069
0.120005935 0.027966483 -0.014901139 0.20575689 0.09160374 -0.06505918 -0.0822605 0.018807668
0.18288192 -0.0988907 0.04296223 0.002128045 -0.09289959 -0.029240321 0.04927292 0.21006203
0.022873355 0.15430434 0.15313317 0.2024164 0.09025471 -0.12838216 0.1680524 -0.113573894
-0.071001336 -0.18631947 -0.03071747 -0.103759706 -0.08262318 0.0104080485 -0.14760602 0.0031247328
-0.18306178 0.20355387 0.16419958 0.060133174 -0.019996488 -0.085180126 -0.22740954 0.072148316
0.13079481 -0.08914692 -0.017028129 -0.13953096 -0.06002861 0.08915814 -0.047484014 -0.12054221
0.16353425 0.11603305 -0.17697486 0.21815048 0.23231113 0.15074119 -0.118643984 -0.18379554
-0.1513287 -0.027302984 -0.142031 -0.033346128 0.030910943 -0.09985185 0.09282155 0.06757452
-0.16084355 -0.13298878 -0.133876 -0.045754008 -0.06880629 0.13076721 0.07860728 0.024211748
0.10384971 0.0071793124 -0.08133279 -0.12640774 -0.024434892 -0.09009262 0.046833947 -0.11338294
0.1530729 -0.10379 0.13078564 -0.010910601 -0.045871444 -0.114055276 0.17124982 0.19237174
0.1422686 -0.09392104 -0.06268684 0.015911702 0.0030650003 -0.2654976 -0.19243497 0.06016454
0.010670612 -0.056210194 -0.11603997 0.1615088 -0.091483176 0.11958337 -0.17076425 0.10894352

conv_layers.1.bias f4 [128]
00000000: 396d a63b 72bf 723c c315 0bbd 6e3c 913c
00000010: 6711 cbbc 1fc3 23bc db0e 0ebd b428 ae3c
00000020: edbe 413c 574e 493c 2b9e fdbc 04fa cfbc
00000030: 951c 97bb 8b40 0abd d305 1fbd a74f 08bd
00000040: 8b01 08bc 0075 0dbd f2ff f8bc 0b87 f2bc
00000050: 4b18 51bd 41ac 6dbc a6b7 cfbc 28f9 c5bc
00000060: ef44 75bc a226 febc ef2f 4ebc 6100 d4bc
00000070: be99 73bd 0117 c3bc 56ce 1bbc f80e 11bd
00000080: e4c6 c23a b5be 353a 9081 2b3c 93e8 05bd
00000090: f2e5 07bc b6df c53b 570f 56bc a44e 753c
000000a0: 025e 8fbc cea2 dc3c 5ea4 95bc b4a1 e2bc
000000b0: bf2b 78bc 2bcf 03bd 7465 dcbc 65dc 3cbc
000000c0: b2f3 a5bb c837 4ebd e6b5 c2bc 69f4 00bd
000000d0: 0082 64bc dbf9 ea3c 796b ae3c ad1b 9abc
000000e0: 1f4e 1a3c ca94 39bd a31f 15bd 9686 13bd
000000f0: e26f 46bd 416d c53b 50fa 2bbc 9255 673b
00000100: 95e9 96ba 1492 b1bc 5234 33bd 7716 7b3c
00000110: e10b 5e3c f8ba dabc b586 d4bb 11c4 68bc
00000120: d532 113d 06ec 0a3d b45a e7bc 567a 3dbb
00000130: 9409 633b 8c2c 8bbc ef5e 31bd 2509 bdbc
00000140: fa35 373a 8a2b 82bc f5b4 a1bc d4f5 7a3a
00000150: c970 56bd 15c4 98b9 50fb 213c ad98 dbbc
00000160: eda3 7d3c e91b 95bc ff18 a63c 01ac 24bd
00000170: c3b0 46bd d698 11bd c94b 0cbd da4b 14bd
00000180: 328a 24bd 868a c2bb bbb7 22bc ff45 c4bc
00000190: 51b5 80bc e9a9 e0bc 36a0 35bd 72ad c2bc
000001a0: ba71 433b 6ae1 30bc 6f76 28bd b603 d13a
000001b0: c3f0 cdbc 80f6 0bbc 1c0d dabb d5ef d53c
000001c0: 3d4b 1ebd ce8d 05bd e415 f3bc 4e16 d93a
000001d0: 1889 87bc edc3 7abc eb4e 4f3c 9e3c a3bc
000001e0: bbbd 603d e982 cbbc 3689 e1bb 8044 13bd
000001f0: 4397 523c 0c32 10bd d113 d5bc 516f cabb
0.0050789383 0.014816152 -0.0339563 0.01772901 -0.024788572 -0.009995251 -0.034682136 0.021259643
0.011825305 0.012286744 -0.03095921 -0.025387771 -0.0046115615 -0.03375296 -0.038823914 -0.033279087
-0.008301149 -0.034535408 -0.030395482 -0.02960541 -0.05104856 -0.014506401 -0.025356125 -0.024166659
-0.014970048 -0.031024281 -0.01258467 -0.025879087 -0.05947279 -0.02381468 -0.009509644 -0.035414666
0.0014860299 0.00069330196 0.010467902 -0.032692503 -0.008294569 0.0060386313 -0.013065181 0.014972363
-0.017500881 0.0269331 -0.018266853 -0.027664997 -0.015147149 -0.032179993 -0.026903845 -0.0115271555
-0.005064451 -0.050346166 -0.023768377 -0.031483088 -0.01394701 0.028683593 0.021291481 -0.018812025
0.00941804 -0.045307912 -0.036407124 -0.036017023 -0.048446544 0.006024987 -0.010496691 0.0035298807
-0.0011513705 -0.0216761 -0.04375107 0.01532518 0.013552637 -0.026700482 -0.006485785 -0.014206902
0.035448868 0.033916496 -0.028241493 -0.002891203 0.003464316 -0.016989015 -0.043303426 -0.02307565
0.0006988939 -0.015889902 -0.019739607 0.00095733744 -0.052353654 -0.00029137792 0.009886578 -0.0268062
0.0154809775 -0.018201785 0.020275591 -0.0402031 -0.048508417 -0.035546146 -0.03425196 -0.03620515
-0.040170856 -0.0059369234 -0.0099315 -0.023959158 -0.015711458 -0.02742477 -0.044342242 -0.023764346
0.0029822425 -0.01079593 -0.041128572 0.001594654 -0.025139218 -0.008542657 -0.006654395 0.026115337
-0.03864597 -0.03260594 -0.029673524 0.0016562433 -0.016544864 -0.015305501 0.012653093 -0.019926365
0.05486844 -0.024842696 -0.006882812 -0.035954 0.012853446 -0.03520398 -0.026010426 -0.0061778207

conv_layers.1.lin.weight f4 [128, 128]
00000000: 89b5 ee3d a9f2 23bd e622 35bd 4967 3dbe
00000010: db32 333d 1f7e 283e 845a 94bd 2033 1ebe
00000020: ada5 f8bd 6091 0d3d 2327 b13d 62c2 ae3a
00000030: f3e4 b43d 63dd 223d 917b e1bd 9554 363b
00000040: 5115 a1bc 5119 833c cf45 b0bc f06b c93d
00000050: b6f2 1ebe c872 f23d 59f5 e3bd 98e9 dabd
00000060: 1173 89bc cefd 13be c750 3fbe 896e 153e
00000070: 651a 38bd e52b 95bc d05b 453e b20a b9bc
00000080: 9fdc 4cbd e4dc 0dbe f0e1 5ebe a430 833d
00000090: fd03 cebd 2de1 2dbe ce9e 03bd a5fe 0a3d
000000a0: 80f7 1dbe 7273 9cbd ff3f d53d 1106 933d
000000b0: b70d c13d 9e26 5e3d 6ac9 7d3d c1af 163d
000000c0: 22f5 c53d 4c1a d8bd 19ba c43d 68cb c2bb
000000d0: e5ac 18be aee8 febd a48a b33d 838d 14be
000000e0: 044a 633d b3af 9abd c882 9bbc fa4e 9f3d
000000f0: 32ac 09be 40a4 df3d c3a4 59bc 8012 e93c
00000100: fa60 12be f00b a5bb c83e b53c 4086 d3bd
00000110: 03c6 97bd 9e56 b63b 41a4 9d3d 62d5 82bd
00000120: db40 c23d 1535 1dbd c08e 6dbd bdf3 9f3b
00000130: 23c0 36bc 3a53 353e 2094 b5bd 6c11 72bc
00000140: 46b8 2c3e a7e0 11be f13f b6bd ba9a e3bd
00000150: 2bc0 24be 8387 423e bd9e 07be 18c7 05be
00000160: a905 42bd 0e1e 84bc 3007 823d e9c8 213d
00000170: 2120 bd3b d43b f6bc 1cd3 6b3b 2496 31be
00000180: 3e3f 10bc c27a 2bbe 286f 0e3e 9f0f 9fbd
00000190: 3392 16be 56e4 c33d 05a3 5f3d c2a1 ac3d
000001a0: dbcb fd3d e25a e83a f020 083e 33e7 9cbd
000001b0: 9bdf 243c fd76 08bc 6648 5bbd d8de 45bd
000001c0: 7242 7d3d 6d27 dc3d 089d b23d 420f 30be
000001d0: a906 07be d4a0 f5bc 2968 db3d 68e7 99bd
000001e0: 978d b2bd 7c17 473d 8ba0 0dbe fdd6 a6bd
000001f0: f73f febd 6f73 a03c 4298 a2bd 418c 96bd
00000200: 8f05 123c f22c 48be 27d4 6c3d 11c1 043e
00000210: c07f 2cbe 758d 0e3e 171c bbbc 0d24 293e
00000220: afb3 893c 029a 9e3d 7740 15bd c6aa 23be
00000230: da77 c2bc eb90 48be 7768 fe3c 7c32 9e3c
00000240: 0c98 2f3e 616f 8cbb ddf1 7d3d 9d97 a43c
00000250: 7b12 ec3d 05bb b1bd 056d c83d 2472 f43d
00000260: 185d 823d 9e8e 3bbc 6062 a7bd 3401 903d
00000270: bcaf 023e 3816 eb3d 3bb3 bb3d 8187 893d
00000280: 5ca2 59bd 9180 14bc 077a 8dbd 9b1f 413d
00000290: 2587 7fbd 4abd 9bbd 4cc9 9d3d 0e61 9abd
000002a0: 669d a83d b159 b73d 60c5 d6bc e3b2 233d
000002b0: 82f2 263d 35bb 723c 085c e9bd e75f 98bd
000002c0: 32ac a53d bb69 893d 8125 95bd 0752 183e
000002d0: f319 d1bd 6ff4 9dbd c54b c83c ff39 46bd
000002e0: 4397 0a3d 8908 82bd 3753 f03d b6aa 27bb
000002f0: 4336 be3d 9e93 be3d 02e5 a13d 978c 8fbd
00000300: a16b 073e c975 993d 8d9c 383d 3729 02be
00000310: f895 e2bd 2a76 813d c3b6 273e 99d7 07be
00000320: e2fd 23be 0e88 e9bc d740 fa3d 4263 ab3d
00000330: 6c4c 8abc e500 76bc 792b 063d bcd2 d63d
00000340: 369c dabd b3fe b83d d6bc 26be f93d 4dbd
00000350: 70ca 98bd 9893 c5bd 0760 643d 2481 76bc
00000360: 597d 3cbd 1d48 35be 894e 5fbd 2884 fbbd
00000370: ad7d fa3d e2d2 963d 3636 183e 5bf4 a8bd
00000380: 228c aebd 7947 2bbe 6584 20bd 4d85 15bd
00000390: 6002 00bd cb1a 1ebe a084 2c3c aecd 123e
000003a0: 0960 4e3d 93a8 ba3c ecb7 33be 7b00 943d
000003b0: ab89 b9bd 6256 08be 01ed b53d 3632 e93d
000003c0: 69f6 b23d 8663 453c 695f 1d3e d0c3 7dbd
000003d0: 2178 ecbd 2e7d a93c 294b 09be 85d6 15bd
000003e0: 4190 fa3c cea1 033e edd4 3a3d 80aa d33d
000003f0: 861e 373d fa96 90ba f4aa ea3d 8555 39bd
0.11655719 -0.04002634 -0.044222735 -0.18496431 0.04374967 0.16454361 -0.07243827 -0.1544919
-0.12140975 0.03456247 0.08650043 0.0013333077 0.08832731 0.039761912 -0.110098965 0.002782141
-0.019663485 0.016003283 -0.021517662 0.098350406 -0.15522274 0.11838299 -0.11130781 -0.10689086
-0.0167785 -0.14452288 -0.18683158 0.14592947 -0.044947047 -0.018209407 0.19273305 -0.022588108
-0.05001509 -0.13853794 -0.21765876 0.06405762 -0.100593545 -0.16980429 -0.03213387 0.033934254
-0.15426445 -0.07639207 0.10412597 0.071788915 0.09426444 0.054236047 0.06195966 0.036788706
0.09665896 -0.10551891 0.09605808 -0.005944658 -0.14909704 -0.12446724 0.08766678 -0.14507107
0.05549051 -0.07553043 -0.01898326 0.077787355 -0.13444594 0.1092 -0.013283911 0.028451204
-0.14294806 -0.0050368235 0.022124663 -0.103283405 -0.074108146 0.005564525 0.076973446 -0.06388356
0.094850264 -0.0383807 -0.057997465 0.004881351 -0.011154207 0.1770753 -0.08866143 -0.0147746615
0.1686717 -0.14245854 -0.088989146 -0.11113496 -0.16088931 0.18997006 -0.13244148 -0.1306423
-0.04736868 -0.016127612 0.06349027 0.039498243 0.0057716523 -0.030057825 0.0035983985 -0.1734243
-0.008804141 -0.16746047 0.1390959 -0.07766651 -0.14704208 0.09565036 0.054598827 0.0842929
0.12392398 0.001772728 0.13293815 -0.07661285 0.010063077 -0.00832915 -0.05353584 -0.048308223
0.061830945 0.10749707 0.087213576 -0.1719332 -0.13186134 -0.029983915 0.10713226 -0.0751484
-0.08718412 0.04860638 -0.13830774 -0.081464745 -0.12414544 0.019586293 -0.07939197 -0.0735097
0.008912458 -0.19548395 0.05781951 0.12964274 -0.16845608 0.13921149 -0.022840543 0.16517659
0.016809313 0.077442184 -0.03643843 -0.15983114 -0.02373879 -0.19586532 0.031055672 0.019311182
0.17147845 -0.0042857383 0.061998237 0.020091826 0.11526962 -0.08678249 0.09786419 0.11935833
0.063654125 -0.011447577 -0.081730604 0.070314795 0.1276235 0.11478847 0.09165045 0.067152984
-0.053133354 -0.009063856 -0.069080405 0.047149282 -0.062384743 -0.076044634 0.0770441 -0.07538043
0.08233146 0.08952654 -0.026217163 0.03996552 0.040758617 0.014815141 -0.11394507 -0.07440167
0.08089484 0.067096196 -0.07282544 0.14875041 -0.102100275 -0.07712638 0.024450192 -0.048395153
0.03383566 -0.06349284 0.11734622 -0.002558393 0.09287693 0.093054995 0.07905008 -0.07009237
0.13224651 0.07493169 0.045071173 -0.12711035 -0.110637605 0.06321366 0.16378312 -0.13265838
-0.16014817 -0.028507259 0.122193985 0.08368541 -0.016882144 -0.015014862 0.032756303 0.10489413
-0.10674326 0.09032955 -0.16282973 -0.05010793 -0.07460487 -0.09647292 0.05575564 -0.015045438
-0.04601798 -0.1770329 -0.054518256 -0.12281066 0.12231002 0.073644415 0.1486443 -0.08249732
-0.08522822 -0.16726483 -0.03918876 -0.03650408 -0.031252265 -0.15439908 0.010529667 0.14336273
0.050384555 0.02278546 -0.1755063 0.07226654 -0.09059461 -0.13314202 0.088830955 0.1138653
0.08738405 0.012047654 0.15368427 -0.06195432 -0.1154635 0.020689573 -0.13407578 -0.036581535
0.030586364 0.12854692 0.045613218 0.10335255 0.044706844 -0.0011031323 0.11458388 -0.045247573

conv_layers.2.bias f4 [128]
00000000: e41c ba3c 8f89 49bc e568 98bc e870 39bd
00000010: 4198 8ebc 3b00 0bbd 89a6 cfbc a479 1bbd
00000020: c1d3 19bc 73c3 a5bc d68c 9a3c a00b a0bc
00000030: fac4 2dbd f288 2b3c 4a78 613b d8b3 01bd
00000040: fc09 4e3a 9c8f f2bb 5875 07bd 5049 57bc
00000050: 146b b3bc 6d87 8abc e00c 9237 b180 12bd
00000060: 3593 ecbc b4a8 9e3c 1b8c 13bd 7614 c3bc
00000070: b1d4 cdbc caf7 08bd 1ad7 bcbc 2d58 0fbd
00000080: 90a5 e9bc 85e9 07bc baf5 efbc c2da a6bc
00000090: 73ec d33a c0ef 49bc 46bb e3bc 042c 5dbc
000000a0: f9ae 83bc 7f85 e3bc b58e 2cbd cfe9 00bd
000000b0: eb46 14bd dd61 cfbc 3452 febc d093 b1bc
000000c0: 77a1 913c a933 683c 530a 3cbc 6b78 03bc
000000d0: be1a b63c 4336 52bd e4d6 913c 7634 9f3c
000000e0: e189 5bbc e6f2 06bd 82ba a9bc b3c1 eb3c
000000f0: 311e debc 5b0b d1b9 2404 29bc 83eb 67bc
00000100: 94f0 e5bc 760c e23c 14ee 29bd 2c7a 993c
00000110: 1d6d d3bc 78d2 e3bc 3f50 00bd e1c8 0e3c
00000120: 8149 04bd 810e 40bb efff 8dbb f71e 12bd
00000130: 2fdf 23bd 2da1 29bd 69e7 9abc 8ec7 fbbc
00000140: 668e 7a3c 220c b5bc 5b7a 87bb 9e87 f03c
00000150: 330d 79bc a43a d7bc 137f a2bc c3e1 143c
00000160: 7b12 1bbd 81e1 05bd aeb4 28bd 37fb cfbb
00000170: 61ae e1bc 5664 27bd 2c0b 08bd ee92 d0bc
00000180: 25a5 fabc 3cb0 7fbc 5ed9 30bd 9122 46bd
00000190: db64 cf3c ec9d cebc 13e6 19bd b09c efbc
000001a0: b54b fdbc bebc c1bc 2176 f9bc 1b40 bb3c
000001b0: a385 073c 16e7 fd3b f811 e6bc a987 a5bc
000001c0: ba06 c3bc bd14 a3bc 4531 f3bc b5d3 fcbc
000001d0: fd5f 4e3c a9b7 18bd 5d2c c83a 6222 fcbc
000001e0: eea5 2e3b 20bd f6bc d686 f3bc 1cc5 80bc
000001f0: 2980 94bb 938e bfbc 81f7 183c be38 98bc
0.022718854 -0.012300863 -0.018604705 -0.04527369 -0.017406585 -0.033935767 -0.025347965 -0.037957802
-0.009388865 -0.020234799 0.018865984 -0.019536793 -0.04242418 0.010469662 0.0034403973 -0.031665653
0.0007859764 -0.0074023735 -0.033070892 -0.013140038 -0.021901645 -0.01691028 1.7410552e-05 -0.03576726
-0.028878788 0.019367553 -0.036022287 -0.023813467 -0.025125833 -0.033439435 -0.023051787 -0.0349962
-0.02852133 -0.0082954215 -0.029291976 -0.020367984 0.001616849 -0.012325227 -0.02779926 -0.013499264
-0.016074644 -0.027773617 -0.042128284 -0.031472977 -0.036200445 -0.02531522 -0.031045057 -0.021676928
0.017777188 0.014172473 -0.011477071 -0.008024315 0.022229549 -0.05132128 0.017802663 0.019434195
-0.013399572 -0.03294649 -0.020718817 0.028778886 -0.027114006 -0.00039872047 -0.010315929 -0.014155271
-0.028068818 0.027593832 -0.041486815 0.018735014 -0.025808865 -0.02781032 -0.03132653 0.008714885
-0.03229666 -0.002930552 -0.004333488 -0.03567406 -0.040007766 -0.041413475 -0.018909173 -0.030734804
0.0152927395 -0.022100512 -0.004134459 0.029361542 -0.015200901 -0.02627308 -0.019835984 0.009087029
-0.03785942 -0.03268576 -0.041187935 -0.006347086 -0.02754897 -0.040867172 -0.03321378 -0.025460687
-0.030596325 -0.015605982 -0.043176048 -0.04837281 0.025316646 -0.025221787 -0.03757293 -0.02924952
-0.030919889 -0.02364957 -0.030451836 0.022857716 0.008271608 0.007748495 -0.02808474 -0.02020629
-0.023806918 -0.01990735 -0.02968658 -0.030862669 0.012596128 -0.037284527 0.001527201 -0.030778114
0.0026649195 -0.030119479 -0.02972738 -0.01571899 -0.0045318794 -0.023383414 0.009336353 -0.018581744

conv_layers.2.lin.weight f4 [128, 128]
00000000: 6a3a 4a3b 89b5 34bc 3d8a 183d d438 223e
00000010: 0370 063e 4990 9dbd ba70 04be 27f8 b73d
00000020: b9b4 cc3d a101 23be 3777 b33d f817 9e3a
00000030: b51f dbbd 7bbc be3d 172c 0a3e 809a 273c
00000040: eb60 dd3d 0989 19be 11c4 313c 1b86 673d
00000050: 9721 cc3c cb3f 71bd 11dc 0a3e bc89 033d
00000060: 5546 a93d 86f0 10be f6ba c63c fe64 4ebd
00000070: afea a1bd 85b4 48bd a887 b43d a824 62bd
00000080: 4bbe 3e3d e0f2 c3bc f7f3 ae3c 49ba d43d
00000090: d1b8 343e 8f8c a63d 59cc 18be d46e c83d
000000a0: e394 91bc 1eba 343e 0195 75bd ceba 18be
000000b0: 49d2 e4bc e710 f33d 7f72 433d d9dc c7bd
000000c0: 26aa 4bbd 1587 f6bc 44d8 aebd 1f94 563c
000000d0: 1151 a6bd 306e 47be 4d6c d6bd 1cdb b7bd
000000e0: 898c 1bbd e58d c63d e810 0a3e ba32 7a3d
000000f0: bcec 153e c1c5 81bd 4294 2a3e e0f8 82bd
00000100: 9b58 2dbc 11d7 443d 275a b4bd f333 623d
00000110: e6b6 4b3d 3bd5 16bc a69d b5bd cb14 5abd
00000120: 5a71 ddbd 55ec 82bd e963 c8bc 8211 cbbc
00000130: 6060 0abc 0fcf 90bd 7911 733d 9985 1a3e
00000140: 3a30 cbbb 8168 34bd 532c 4a3c 12bb a53c
00000150: f1d3 2dbd 2374 1e3e 1089 f0bc d822 2f3e
00000160: 911f 0b3e bf9a 023d 7b79 fcbd 1cbe 34bc
00000170: 45ff e6bd e21f 0a3d 4c7a 1dbb 5245 01be
00000180: eaad e6bd 3285 f1bc 4c03 1bbc 90ac 3e3d
00000190: e3cf 973c b753 7b3d af3e f13d ad1d 043c
000001a0: 81c1 bdbd 2cf5 213d aa96 81bd 5e10 6abd
000001b0: 8207 e53c c693 85bc 4f50 4f3d a774 ad3d
000001c0: 4373 bebc bed1 663d 8d2d a5bd dc44 febc
000001d0: 1efa f53d 2168 81bd 663e 44bc 172c 3dbd
000001e0: f68b 8c3d 1210 80bd f8c8 193e 14d5 88bd
000001f0: 46dd 253e a141 2a3d 8929 01be 8c84 a2bd
00000200: f869 0fbe 53d9 0dbe a93f c6bc 2934 c6bd
00000210: cd49 af39 58a4 6ebd 9a75 013e 1813 cfbc
00000220: 9034 cdbd 4bdd 1e3e 86cc d5bd 5db8 e53d
00000230: 5a32 0d3d 1617 d63d a467 fd3d ac23 08be
00000240: a768 ddbd a725 b9bd d137 193d 24b5 d3bd
00000250: b887 25bd ae5a 913d c281 0fbe 4aad 84bd
00000260: 9a60 9c3d 012f acbb 0ea8 acbd fb46 0dbd
00000270: 8fcf af3d c4ec 863d 07a0 62bc 77ca bc3d
00000280: b28a cebd 0f5a 68bd 56e7 afbd b107 0b3e
00000290: d075 f83b 631e a9bd 312d fdbb 7252 193e
000002a0: c695 ed3b 45d8 62bd 3cdc 723b 7a14 023d
000002b0: b39c 003e 95d0 7abd 14af b3bd ff10 0f3e
000002c0: 75b7 98bd 8833 c33c e790 e23d 7747 c8bd
000002d0: 4ccb f9bd 88dc 2fbe a1ea cd3d 9f56 eb3d
000002e0: 2716 a8bd 4cb8 0ebe 7e97 4c3d 884a 853d
000002f0: ca74 15bd f0bf 8bbd 8207 bcbd b74b 1e3e
00000300: 3746 fe3d 7419 c8bd 1c14 60bc 6847 003c
00000310: d0e6 16bb 2750 9abd 3678 00bd 239c 063d
00000320: e3da 69bc 18b7 f4bc 0062 0ebd bba9 083c
00000330: 90b3 8e3b 7164 ca3d c9e7 81bc 430c 6c3d
00000340: 130b 1dbd 3222 ce3d b836 303d cad1 cb3d
00000350: 0d12 c13d 5882 073e fd1b 12be 73d1 36be
00000360: 3545 dfbc 4185 f23d 87b5 a63d 5cbf f9bd
00000370: 32ed a9bd ec97 cf3d 3a31 0d3d c3a5 16bd
00000380: 685b 03bd f243 903d 1b1a a33d 0fed 793d
00000390: 875a babd 4bda adbc 83d0 bc3d 37d6 fb3d
000003a0: 9b48 1c3e 6343 3abd 0ec3 25bd 4eee c4bd
000003b0: 64a1 4c3c f21e f7bc 4b78 27bc 8495 10be
000003c0: 9c12 e3bc 87b8 e0bd 78da 143d 0e37 883c
000003d0: 02c6 423b b6a4 213e ba53 0f3e 3df4 fbbb
000003e0: 2873 e7bd 0793 72bd 2cc8 0fbd ffed a43d
000003f0: dafe 3d3d 0575 3e3d 9aea d0bd f013 06be
0.0030857571 -0.0110296095 0.03724121 0.1584199 0.13128667 -0.07693536 -0.12933627 0.08982878
0.099954076 -0.1591859 0.08762973 0.0012061587 -0.10699407 0.093132935 0.13493381 0.010229707
0.10809501 -0.14993681 0.0108499685 0.056524377 0.02491836 -0.05889873 0.13560511 0.032113776
0.08265368 -0.14154252 0.024259072 -0.050389282 -0.079060905 -0.04900028 0.08814937 -0.05521074
0.046568196 -0.023919523 0.021356566 0.103870936 0.17648627 0.08132278 -0.14921702 0.09786764
-0.01777119 0.17649123 -0.059956554 -0.1491501 -0.027932303 0.11868458 0.047716614 -0.0975892
-0.049722813 -0.030093709 -0.08537343 0.013096838 -0.08120931 -0.19475627 -0.104698755 -0.08977339
-0.03797582 0.09695033 0.13483012 0.061083533 0.14641088 -0.06336547 0.16658118 -0.063951254
-0.010580207 0.048056666 -0.08806258 0.055225324 0.049734972 -0.009206112 -0.0886796 -0.053242486
-0.10812636 -0.06392733 -0.024461703 -0.024788622 -0.008445829 -0.07070743 0.059342835 0.15090026
-0.0062008174 -0.044044975 0.012339669 0.020230804 -0.04243845 0.1547399 -0.029362231 0.17103136
0.1358626 0.03188586 -0.12327858 -0.011031654 -0.112791575 0.033721812 -0.0024029193 -0.126241
-0.1126364 -0.029482458 -0.009461235 0.046551287 0.018531745 0.061359134 0.11779534 0.008063716
-0.092654236 0.039540455 -0.06327565 -0.057144515 0.027957682 -0.016305815 0.050613698 0.08469515
-0.02324832 0.05635237 -0.08065329 -0.031038694 0.12010597 -0.06318689 -0.011977768 -0.046184625
0.06862633 -0.06253065 0.1501807 -0.066812664 0.1619769 0.041566495 -0.126135 -0.079354376
-0.14005268 -0.13852434 -0.024200277 -0.096779175 0.00033433587 -0.0582622 0.12642518 -0.02527766
-0.10019791 0.15514104 -0.104394004 0.11216805 0.034471847 0.10453622 0.123732835 -0.13294858
-0.108109765 -0.09040385 0.037406746 -0.10337284 -0.040412635 0.07097374 -0.14014342 -0.06478365
0.07635613 -0.0052546267 -0.084304914 -0.03449152 0.085845105 0.06588128 -0.013832099 0.092183046
-0.10085048 -0.05672651 -0.08589046 0.13577153 0.0075824037 -0.08257749 -0.0077263345 0.14972857
0.0072505204 -0.055382032 0.003705754 0.03175781 0.12559776 -0.061234076 -0.08773628 0.13971327
-0.07456867 0.023828283 0.11062794 -0.09779256 -0.12196979 -0.1717397 0.100545175 0.11491131
-0.0820735 -0.13937491 0.04994916 0.06508356 -0.03648833 -0.068237185 -0.091811195 0.1545857
0.12415736 -0.0977048 -0.013676669 0.007829525 -0.0023025759 -0.07534819 -0.031364642 0.032863747
-0.014273378 -0.029872462 -0.03476143 0.008341248 0.0043549016 0.09882439 -0.015857594 0.05762888
-0.03834064 0.10065116 0.043020934 0.099521235 0.09427271 0.13233316 -0.14268489 -0.17853336
-0.02725468 0.118418224 0.08140092 -0.12194702 -0.082971945 0.10136399 0.034470774 -0.036779176
-0.032069594 0.070442095 0.079639636 0.061017092 -0.09099298 -0.021222254 0.09219458 0.122967176
0.15262072 -0.04547442 -0.04046922 -0.096157655 0.01248965 -0.030166123 -0.010221551 -0.14119536
-0.027718835 -0.10972696 0.03634116 0.016627815 0.0029720073 0.15785488 0.13996783 -0.0076890276
-0.11301261 -0.059222247 -0.03510301 0.08053207 0.046385624 0.046498317 -0.10200997 -0.13093543

gru.weight_ih_l0 f4 [192, 128]
00000000: d276 203d 6884 e7bd bc32 7dbd 4af2 e53c
00000010: fd22 d93d 26d0 923d d9c4 84bc fd6c 42bd
00000020: ca04 543d b598 b8bd d73d e3bd bbe9 a2bd
00000030: 7f0c 20bd f361 6bbd 78d1 6b3c 3bc8 bb3d
00000040: 1bd1 d9bd 336a e8bd e678 8fbd 4378 b0bd
00000050: 6769 973d a8c1 973d cb0e 863d 83ba bb3d
00000060: d07d 8fbd 8aa8 60bd 3fb3 07be 8bfb 94bd
00000070: b853 bebb 63ce 9dbd 9856 9fbd f22b 703d
00000080: 77bf cfbc f8bf 263a bd67 9a3d 3142 f5bd
00000090: 714a adbc 3bdf ac3d 4f62 d53c a828 f73c
000000a0: a3f7 02be 88fb 893d 5a81 023e 8a28 09bd
000000b0: b339 903d befc c6bd c003 933b b909 9cbc
000000c0: 7588 a23c e00a 963c 73f5 cd3d 6e75 01be
000000d0: 8907 45bd 3f09 9cba 4985 f63d a43e 4b3d
000000e0: 613b 0abd c2e9 0bbe d523 863c ad0d acbd
000000f0: 2a03 a7bd cec8 fcbd 385a 433d 930f e83c
00000100: a6e8 5fbd a62d af3d 5234 03be 1990 8a3b
00000110: 5ac8 00be 5fa5 69bd 4c53 b23d e5fe cfbd
00000120: 8e57 97bb bc4a 96bd 672c 18bb ebe1 f03b
00000130: 02e0 773c b4d0 f7bd aaf0 33bd c1fb ae3d
00000140: 0b91 a1bd 365a 7fbc 5a05 963c abea 0dbd
00000150: 5316 a33d 2165 c6bd cab5 04bd 0f2f 823d
00000160: 6937 81bd 84df e53d e587 413d ba55 1bbd
00000170: e612 893d 61dc 843d 5a1e 343d e1c4 b13c
00000180: 9cfe a6bd ca53 0fbe ce34 9ebd 0f39 9b3d
00000190: a4c8 2cbd 0572 c9bd 65f0 b3bb 2cf9 f53d
000001a0: 4a46 58bd 1276 eabd f98c a6bc 721b 233d
000001b0: e99b 82bd 2722 293d 247b ba3c f8dc d0bd
000001c0: ca5a 76bc 36fb 8f3b 06cb ca3d 499c 1e3c
000001d0: 2a3a 1c3d 2eb1 463d fa1b 36bd b853 273b
000001e0: d3dc 2b3c 563f 883c 90b5 82bc 348a 50bd
000001f0: 2d84 b3bb c9e2 dc3c d32f c3bd d760 dbbd
00000200: a602 993d 4450 c73c 9a7f 84bd 6649 7e3d
00000210: e198 3e3d 6a34 ddbd a3a5 713d 6a91 5a3b
00000220: a57e 163d 669e 92bd 69a4 8a3d 7066 cebd
00000230: b3aa 8ebd b493 323d 9baa cc3d 7061 cabd
00000240: 687a 053e d721 d3bd 7c99 0c3c 4382 e0bb
00000250: fc7d 19bc 6f67 e8bd af72 91bc c158 dc3d
00000260: 48c2 fb3c 7855 21bd 30a8 c83d 2c80 93bc
00000270: 8f66 1e3d a23e 4b3d da26 e83d 6177 f6bc
00000280: 47c3 4fbd 173c c0bd 4e96 abbd dc33 ce3d
00000290: 303d f9bc 1ead e0bd 1f0a 82bd 1763 17be
000002a0: c2de 9f3d 6b0f 39bd 3018 42bd 96ce 9e3d
000002b0: 43d4 debd efb3 45bd 57fe 883d 2c52 743d
000002c0: 8a24 013c 4bca 533c e4c1 61bd c850 673b
000002d0: fde5 8cbd cb84 1fbd 9f15 b73d 002f 19be
000002e0: 2f30 a93a 4949 85bb 6878 033d 4894 193d
000002f0: cb28 2c3d 9df3 ab3d 8d01 d63d f6d9 163d
00000300: b661 32bd 79fe 57bd 51e8 f5bd d900 b3bc
00000310: 9fd2 c8bc 148a 163d d7e2 8c3d 6ddd 6bbd
00000320: 77dc 04be 65db 90bc 34a0 d6bd 5342 e7bd
00000330: cc89 4d3c 2aaf b03d e771 073c 0036 bebd
00000340: 61c6 f9bd 92f1 8e3d e34f 0ebe 763f ca3d
00000350: 2fae b83d 1c83 6b3d 250c fc3d 60b7 c4bd
00000360: 23d6 8a3a 50ef 78bd a302 debd 7980 45bd
00000370: ca04 693d e031 a4bc 125e fb3d f50c efbd
00000380: 61b1 963d 9935 d03d 98ba 763d ba96 e2bc
00000390: 7db6 f6bc ce1a 85bd d85b 19bd 1889 543d
000003a0: 9389 18bd 7128 9fbd 1e9a 72bc f154 d7bd
000003b0: 6b11 54bd 9e0b 97ba f449 cd3d 1c1c 92bd
000003c0: ac65 5cbc ae0a aebc 5af4 bc3d 6c3d aebd
000003d0: 4f0a f3bd 767f bbbd 5ab3 dc3d a6bb 873c
000003e0: faa4 d6bd f9f3 803d 2256 94bd e501 463d
000003f0: a501 86bb a5eb a3bd 697a 8e3c 51e8 7ebd
0.039175816 -0.11304551 -0.061815962 0.028069634 0.106023766 0.071686074 -0.016207146 -0.04746722
0.05176238 -0.090135016 -0.110957794 -0.07954737 -0.039074417 -0.05746646 0.014393203 0.0916905
-0.10635587 -0.11348381 -0.070054814 -0.08616688 0.07393151 0.07409984 0.0654579 0.09166434
-0.07006419 -0.05484823 -0.1325197 -0.072745405 -0.00580832 -0.07705381 -0.07780188 0.05863566
-0.025359852 0.0006361003 0.07539318 -0.11975516 -0.02115366 0.08441015 0.026047854 0.030170754
-0.12789778 0.06737429 0.12744656 -0.033485927 0.07042255 -0.097161755 0.004486531 -0.019047605
0.019840458 0.018315732 0.10056581 -0.12642452 -0.04810289 -0.0011904611 0.12037141 0.049620286
-0.033748034 -0.1366339 0.016374508 -0.08401046 -0.081549 -0.12342988 0.04769346 0.028327739
-0.05466523 0.085536286 -0.12812927 0.0042286036 -0.12576428 -0.057042476 0.08707294 -0.10156039
-0.0046185916 -0.07338473 -0.0023219825 0.0073511503 0.015129091 -0.12100354 -0.043930687 0.08544112
-0.07888993 -0.015585473 0.018313099 -0.034647625 0.079632424 -0.096872576 -0.03239993 0.06356632
-0.06309397 0.11224273 0.04724874 -0.037923552 0.06693058 0.064873464 0.043974258 0.021700324
-0.08154032 -0.13996807 -0.077249154 0.075792424 -0.042183533 -0.098362006 -0.0054913037 0.120104164
-0.052801408 -0.114483014 -0.020330893 0.039821096 -0.06377394 0.041292336 0.022763796 -0.101983964
-0.015036294 0.0043939603 0.09902005 0.009680816 0.038141407 0.048508815 -0.044460274 0.0025532078
0.01048966 0.016631763 -0.015955716 -0.05091305 -0.005478403 0.026963608 -0.09530606 -0.1071183
0.07471208 0.024330266 -0.064696506 0.062081717 0.046532515 -0.10801013 0.058995854 0.0033350834
0.03674187 -0.07159118 0.0676964 -0.10078132 -0.06966152 0.043597892 0.09993478 -0.09881866
0.13034976 -0.10309189 0.008581515 -0.006851466 -0.009368416 -0.113478534 -0.01775488 0.10759116
0.030732289 -0.03938815 0.09797704 -0.018005453 0.038672026 0.04962028 0.11335535 -0.030086221
-0.05072334 -0.09386461 -0.08378278 0.10068485 -0.030424684 -0.109705195 -0.06349587 -0.14783894
0.078061596 -0.04518072 -0.04738635 0.07754247 -0.108803295 -0.0482673 0.066891365 0.059648678
0.007882247 0.012926648 -0.05511655 0.0035295952 -0.06879804 -0.038945 0.08939671 -0.14959335
0.0012908037 -0.004067574 0.03209725 0.037494928 0.04203109 0.08396075 0.104495145 0.036828957
-0.043550216 -0.05273292 -0.120072015 -0.02185099 -0.024514494 0.036752775 0.06879204 -0.057584215
-0.12974726 -0.01768274 -0.10479775 -0.11291947 0.01254506 0.0862716 0.0082669025 -0.092876434
-0.12196041 0.0697967 -0.13897662 0.098753855 0.09017598 0.057498083 0.12307004 -0.096052885
0.0010592382 -0.0607751 -0.10840347 -0.048218224 0.056889333 -0.020043314 0.12273802 -0.11672393
0.07358051 0.10166473 0.060236543 -0.027659763 -0.030116314 -0.06499253 -0.037441105 0.051888555
-0.037240576 -0.077713855 -0.014807252 -0.10514248 -0.051774424 -0.0011523848 0.10023871 -0.07134268
-0.013451975 -0.021245327 0.09226294 -0.08507809 -0.118672006 -0.091551706 0.10776396 0.01656897
-0.104806855 0.06296534 -0.07242991 0.04834165 -0.0040895515 -0.0800393 0.017392354 -0.062233273

gru.weight_hh_l0 f4 [192, 64]
00000000: 90cf 273c 000c fe3a 18a6 5dbd 34df d33d
00000010: f81d e03d 18a5 ffbd 4488 c1bd 2807 9dbc
00000020: e82e 5e3d 80f0 cf3c f6df edbd 5a57 d73d
00000030: 70a6 213d 1086 9bbd 981c b3bc 3232 c13d
00000040: b4fd d73d 2803 b73c ccae 243d 14ad 35bd
00000050: 7448 563d 58dd 993c f4c7 e2bd 9c57 903d
00000060: 486f f8bc 7e15 c13d e855 bf3d e821 1bbd
00000070: fc86 88bd 9ca6 9ebd 8c7f 1c3d dea7 e8bd
00000080: b00b 9d3c 9811 c33c 7006 96bd d6a5 b03d
00000090: 0001 c13a 80a1 633c 082d 49bd ec5e 2a3d
000000a0: 9835 81bd 8c34 6f3d 70a7 e0bd 8c66 7fbd
000000b0: 882d 82bc b620 febd fc7a ff3d d082 acbc
000000c0: 1ceb 183d 54b6 1e3d e427 36bd 687c c7bd
000000d0: f4cc d8bd 4cca e1bd f41d b23d b294 a7bd
000000e0: 10c7 8e3d e6a9 903d c06a 88bd ec51 64bd
000000f0: 24ca 06bd 80ee 70bc 884e 96bc 48fc 3dbd
00000100: 2c68 fdbd 88bb 75bd 989c fe3d f2e2 dfbd
00000110: d292 a8bd fa08 a43d 905f 02bd bcd0 22bd
00000120: 88a7 13bd a0c6 a73c a004 f53b 10ec ebbd
00000130: b819 0b3d a8b1 b93c a074 ffbb 4ad6 cf3d
00000140: 2093 2f3c 702a 98bc 92f1 ea3d cce7 c33d
00000150: 80e8 d7ba 9027 483d 50d1 fdbc c4cc 47bd
00000160: 889d 80bc be36 b83d a495 0f3d d25a dcbd
00000170: 0c7c 8d3d 4c2d 4bbd b4ae 06bd 4074 e53b
00000180: 30be 3dbc 04de 403d 40c9 83bb 5051 e33c
00000190: d057 cb3c ece9 67bd 006f f3ba 845e a2bd
000001a0: b22e acbd f037 733c 4a59 e9bd 524b a3bd
000001b0: 3c0d 74bd d0eb 1a3c 9001 253d 4004 df3d
000001c0: 28b0 e93d 202d 5dbd 96c8 8e3d 145c b63d
000001d0: b896 663d 8003 cdbd 5cb2 1dbd 80b2 513c
000001e0: 5c75 323d 40c6 eabd 7eb4 98bd e856 d73c
000001f0: f452 663d 8003 593c a2f3 853d 58d8 4ebd
00000200: cacd fabd a82f 18bd f23b 89bd eebd ce3d
00000210: 00b2 2a3c 5a6b c4bd ccec aebd 68d0 8f3c
00000220: e835 96bc e0e7 b73d eeca eebd f8ea 2fbd
00000230: 900e cc3c 4098 a5bd 1089 993d 2281 9e3d
00000240: 8078 dcbb f0aa 6fbd 5483 babd 3005 b13d
00000250: 2245 8abd f01c e5bd d870 fcbd 5e61 fcbd
00000260: c02f d6bb c08e 89bb d486 143d ac51 893d
00000270: d826 68bd a0ff 68bd e037 b5bb 5ce3 eebd
00000280: 621d e63d acf5 febd 306a b43c eaec c53d
00000290: ce74 d7bd 26bc ab3d 2830 3fbd 1c81 3d3d
000002a0: 1464 603d 6428 5f3d e85a 5f3d 00a6 283d
000002b0: 98bd b53c 9ce6 95bd e0f0 dd3d 6846 b7bc
000002c0: ecd1 ba3d 206b 703d c05a 413b dc47 3b3d
000002d0: ccab ecbd e82e 07bd 9c2b 9d3d 9005 6bbc
000002e0: a43f d4bd 88e1 c53d 1c03 803d 08f8 af3c
000002f0: 6ca0 9c3d 142b c6bd 7878 16bd 7a46 95bd
00000300: 9003 ebbd 8469 343d 381f 523d 704e 3b3c
00000310: a43a 51bd 30de 07bd e08c 9e3b c041 cd3b
00000320: 8a90 9ebd c0e6 e43b be5c 99bd 30ac 9e3d
00000330: 34b6 f63d 5234 8d3d c0ac 43bd 9852 403d
00000340: e624 f4bd c01a dfbd 10d8 2abd 0801 3c3d
00000350: 2090 c43b 9e66 ee3d 1ecb d33d 486b 09bd
00000360: 4cc9 6a3d 4291 b63d 048f 163d b891 d6bc
00000370: 4cac 0dbd 8046 34bb b050 bfbc fcfb 113d
00000380: c8e2 acbc 56c0 ebbd b8f0 ae3d 8ebb c73d
00000390: 082b 183d 4ca8 eabd c6e9 bebd b86b d7bd
000003a0: 10a1 2ebc 9006 f7bc cc3b 46bd f637 ecbd
000003b0: bc47 d2bd 6007 1b3d b0c3 77bc cc2a 09bd
000003c0: aab6 cbbd c09a 143c 10ae 8abc ce6d d1bd
000003d0: 90ab a23d 5680 9bbd 00da f5bd 260a cabd
000003e0: 36dd 883d f0ce 803d 0c42 52bd 5e7b dabd
000003f0: a4a4 c1bd bc9a 34bd c887 cf3d 78b9 7c3d
0.010242358 0.0019382238 -0.054113477 0.10345307 0.10943216 -0.12482661 -0.09449819 -0.019168451
0.054243952 0.025383234 -0.11614983 0.10514708 0.039465368 -0.0759393 -0.02186422 0.09433402
0.10546437 0.022340372 0.04020576 -0.044354513 0.05231519 0.018782303 -0.11073294 0.0704796
-0.0303265 0.094279274 0.09342557 -0.037874132 -0.06666371 -0.07746622 0.038207576 -0.11360143
0.019170612 0.0238121 -0.073254466 0.08625381 0.001472503 0.013893485 -0.04911521 0.04159443
-0.0630905 0.058399722 -0.10969436 -0.062353656 -0.015890852 -0.12408583 0.12474629 -0.02105847
0.037333593 0.0387481 -0.044471636 -0.097405255 -0.10585967 -0.11024913 0.08697119 -0.08182658
0.06971562 0.070636556 -0.06660986 -0.05574219 -0.03290762 -0.0147053 -0.018347993 -0.046383172
-0.12373385 -0.059993297 0.12432212 -0.10931958 -0.08231129 0.08009525 -0.031829417 -0.039749846
-0.036048442 0.020480454 0.007477358 -0.11519635 0.033960074 0.02266772 -0.007795885 0.10148294
0.01071623 -0.018574923 0.11471857 0.09565696 -0.0016472489 0.048865855 -0.030983597 -0.048779264
-0.015700117 0.08994816 0.035054818 -0.1075951 0.06908426 -0.049603745 -0.032881454 0.0070023835
-0.011580989 0.04708673 -0.0040217936 0.027748734 0.024822146 -0.05661957 -0.0018572509 -0.07928184
-0.08407344 0.0148448795 -0.11393984 -0.079733506 -0.059582934 0.009455636 0.040284693 0.108894825
0.11410552 -0.053998113 0.069718525 0.08904281 0.05629608 -0.10010433 -0.038500175 0.012798905
0.043568954 -0.114635944 -0.07456301 0.026286557 0.056231454 0.013245463 0.0654061 -0.05049929
-0.122462824 -0.037154824 -0.06700887 0.1009482 0.010418415 -0.09590788 -0.08541259 0.01755543
-0.018336251 0.089797735 -0.116597995 -0.042948693 0.024909288 -0.0808568 0.07496846 0.07739474
-0.006728232 -0.058512628 -0.0910708 0.086435676 -0.06751467 -0.1118716 -0.12326211 -0.12323259
-0.006536454 -0.0041979253 0.036261395 0.06705031 -0.05667767 -0.056884408 -0.0055303425 -0.11664459
0.11236073 -0.12449202 0.02202329 0.096643284 -0.105203256 0.08385496 -0.046676785 0.046265706
0.054782942 0.05448188 0.054530054 0.041173935 0.022185132 -0.07319376 0.10836959 -0.02237244
0.09122071 0.058695912 0.0029503554 0.045722827 -0.11556205 -0.033003718 0.076743335 -0.014344588
-0.10363701 0.09662157 0.06250593 0.021480575 0.076477855 -0.09676185 -0.03673598 -0.07288833
-0.11475289 0.04404594 0.051299304 0.011432275 -0.051081315 -0.03317088 0.004838571 0.0062639415
-0.077424124 0.0069855154 -0.07488392 0.07747686 0.12046471 0.06894745 -0.04777217 0.046953768
-0.119211 -0.10893774 -0.04170996 0.04589942 0.0059986264 0.116406664 0.10341476 -0.033549577
0.057320878 0.089144245 0.036757484 -0.026192531 -0.034588143 -0.0027507842 -0.023353904 0.0356407
-0.021104231 -0.115112945 0.08542007 0.0975257 0.037150413 -0.11457881 -0.093219325 -0.105185926
-0.0106585175 -0.030154496 -0.04839687 -0.11534111 -0.102675885 0.03784883 -0.015122339 -0.03348808
-0.0994695 0.009070098 -0.016928703 -0.10226022 0.07942879 -0.075928375 -0.12004471 -0.09865217
0.06682818 0.0628947 -0.05133252 -0.10668062 -0.09455231 -0.04409288 0.1013332 0.061700314

gru.bias_ih_l0 f4 [192]
00000000: a059 dbbd ee89 05be 924f 46bd 5338 cabd
00000010: 1571 05be 2bf6 26be 4e8e 723d 5f28 0fbd
00000020: f017 3a3d 9536 9f3c 7bc7 e3bd 87f1 aa3c
00000030: 74a9 c43d cac8 83bd a66e 413c c625 a23d
00000040: 58f0 0e3c 84a6 36be 7b9c 0abe 48b8 0abd
00000050: 02ce ac3d d3fb efbc 3587 9bbd 20cf 86bd
00000060: 1ca2 f4bd 8763 b1bd 7f7f 9e3b 530e 67bd
00000070: 558e 0a3d d156 0b3e b1c0 15bd ac3c c9bd
00000080: 1602 2abe a522 aabd 8cde 1ebd c68d 96bd
00000090: 63bc d43d efbf edbd 4614 153d 4780 90bd
000000a0: c406 843d 9bb5 58bd f9ae abbc cc86 3abe
000000b0: e769 d73d c19a 54bd 4a65 cb3b 5c91 93bd
000000c0: 056a c7bd 3ba7 a43d 0ae3 e1bc ad9b 983d
000000d0: 16c4 f9bd 73e8 4c3d 4923 0cbe e059 23be
000000e0: b1cc f93c 1a4a 4a3d 4eaa b2bd eaad a9bd
000000f0: 5c7b 42bc cd3c 11bb 05ee 12bd bcd3 0a3d
00000100: ad12 a73d a2ca 803d 94ba 5c3d ea4b a9bd
00000110: c8ae d03d 56fc 94bc d3fa 203b 4491 143e
00000120: 246e 073e c6dc a43d 4276 dc3d cc01 1c3e
00000130: aadc 59bd 029d 4abb 83a6 07bc 73f5 4ebb
00000140: b075 883d c202 203b 5792 dcbc 126b 6dbd
00000150: bcf4 2e3b e914 2d3e f67d f03d 72da ca3d
00000160: 4866 f7bd d189 afbd 092f 623d 7e44 2dbc
00000170: b250 f8bd 62b7 1a3e cbfd 7b3d 9146 a53d
00000180: 4db5 a1bd 7607 d43d cef5 2e3e 1431 e13d
00000190: 5067 703d 2c0b 05bc 1a80 813d 4df0 c13d
000001a0: ab1e ea3d 3f91 81bd 37eb 81bd ca24 3ebd
000001b0: 735c 1ebc 9765 1a3d d643 e13d a526 803d
000001c0: 29d3 fbbc af93 b23d c0b2 043e 66f3 443e
000001d0: 1ba9 02bd 9377 493d 71f2 c63b 2d95 363b
000001e0: dbc3 f93d 72f5 b43d f2fb 2dbd e2e1 063e
000001f0: 6c73 eebd 4ca2 90bd d639 6b3e 257b 56bd
00000200: 9d03 803d dadd b63c 79f2 9dbd f395 a9bd
00000210: 91e9 0dbc b122 873d 5c5a b83c 81aa 0e3b
00000220: 9004 84bd 2d2b f23c 5952 3abd 6d13 89bd
00000230: e1f4 d6bd ff46 943d c15b 2f3d 49cd dabd
00000240: f01d 0dbd c968 403c 175e 313d b29e b13d
00000250: 1962 27bd 929f 2b3d 50b9 23bd c325 dfbb
00000260: f4c4 a93d cc68 6abd ad89 c03d 1fbe b6bc
00000270: 3354 3b3d 606f 95bd 419b b63c 77d2 b0bd
00000280: 8397 963d 13f5 583d 1e81 d93c 56f7 41bd
00000290: fb8f 073c b240 b9bd 3416 38bd 1c42 06bd
000002a0: 47d4 aebd 1698 323d 433b 5c3d c79b 08bd
000002b0: ef22 46bc 7ec2 db3c 609d ba3d 5707 963d
000002c0: 606e 9cbc 62c0 a43c 3c5d b73b 65ec a13d
000002d0: 236d 2b3c 28eb 4fbb e9fa 97bd eed7 813d
000002e0: 3177 9cbc 1541 d5bd 8c17 50bd 4b99 dbbc
000002f0: c8dc 593c f892 1d3c 4d63 403d a49b 98bd
-0.10710454 -0.13040897 -0.048415728 -0.09874024 -0.13031419 -0.16304843 0.059217744 -0.03495061
0.045432985 0.019435206 -0.11122032 0.020867122 0.09602633 -0.06434782 0.011806166 0.07917361
0.008724295 -0.17836958 -0.13536255 -0.03386715 0.0843773 -0.029294884 -0.07594148 -0.06582475
-0.119449824 -0.086615615 0.004836976 -0.056410145 0.033827145 0.13607337 -0.036560718 -0.09826025
-0.16602358 -0.08307389 -0.038786456 -0.0735126 0.103874944 -0.11608874 0.036396287 -0.07055717
0.06446603 -0.052907567 -0.020957457 -0.18215483 0.10518246 -0.051905397 0.006207143 -0.072054595
-0.097370185 0.08039709 -0.027574081 0.07451568 -0.121956035 0.05002637 -0.13685335 -0.15952253
0.030493112 0.049387075 -0.08723889 -0.082851246 -0.0118702315 -0.0022161484 -0.035871524 0.033893332
0.08157859 0.06288649 0.053888872 -0.082664326 0.10189587 -0.01818673 0.0024563565 0.1450854
0.13225609 0.08049922 0.107647434 0.1523506 -0.053188957 -0.0030916338 -0.008279446 -0.0031579405
0.06663072 0.0024415706 -0.026925249 -0.05796344 0.0026696166 0.16902508 0.11742775 0.099049464
-0.120800555 -0.08571208 0.055220637 -0.010575412 -0.121247664 0.15109017 0.061521333 0.080701
-0.078959085 0.103529856 0.17085955 0.10995689 0.058692276 -0.008120339 0.063232616 0.09469662
0.11431631 -0.063265316 -0.06343692 -0.046421804 -0.009665596 0.03769454 0.10999267 0.06257371
-0.030740337 0.08719575 0.12958813 0.19233474 -0.031899553 0.0491863 0.0060713817 0.0027859912
0.121955596 0.088358775 -0.042476602 0.13172105 -0.11643109 -0.07062206 0.22971281 -0.052363534
0.06250689 0.022322584 -0.077122636 -0.08280554 -0.008661644 0.06598414 0.022504024 0.0021769109
-0.06446183 0.029561603 -0.04548869 -0.06693158 -0.10495926 0.07240104 0.042812113 -0.10683686
-0.03445238 0.011743733 0.04330262 0.08672847 -0.040865038 0.041900225 -0.03997165 -0.0068099215
0.08289519 -0.05722885 0.094012596 -0.022307454 0.045734596 -0.07296634 0.022290828 -0.08633893
0.07353117 0.052968096 0.026550826 -0.04735502 0.008274074 -0.09045543 -0.04494305 -0.03277789
-0.085365824 0.04360207 0.053767454 -0.033351686 -0.01209329 0.02682614 0.09112048 0.07325619
-0.0190956 0.020111267 0.005595831 0.07906417 0.010463032 -0.0031725857 -0.07420904 0.063400134
-0.019099804 -0.10412804 -0.050803706 -0.026806494 0.013297267 0.00961756 0.0469697 -0.07451561
